controllers/REINFORCE/results/final_weights.pt (torch, 2695 bytes, 6 tensors)

fc1.weight f4 [6, 3]
0	0x3eee5437	0.46548626
1	0x3f8698a7	1.0515336
2	0x3e8b5e0e	0.27220196
3	0x3f8e3e1e	1.1112707
4	0xbf2de775	-0.679313
5	0xbe06794f	-0.13132213
6	0xbe3943de	-0.18092296
7	0x3f83396b	1.0251898
8	0x3f6ba8e0	0.9205456
9	0xbedfc829	-0.43707398
10	0x3f9a756a	1.2067082
11	0x3ef6845b	0.48147854
12	0x3ebb6276	0.36598557
13	0xbc3b56c0	-0.011434257
14	0x3e4658a3	0.1936975
15	0xbed4fff6	-0.41601533
16	0x3f7ef740	0.99596024
17	0x3eee9341	0.4659672

fc1.bias f4 [6]
0	0xbe46dad3	-0.19419412
1	0x3f1f8d38	0.6232486
2	0xbdaf5cb9	-0.08562607
3	0x3c73d746	0.014882868
4	0xbea82e20	-0.3284769
5	0x3e02c753	0.12771349

fc2.weight f4 [12, 6]
0	0xbf120076	-0.57031953
1	0x3ee073b7	0.43838283
2	0xbea163b0	-0.31521368
3	0xbf0c0b80	-0.5470505
4	0x3da75b3d	0.08171699
5	0xbe964285	-0.29347625
6	0x3f775572	0.96614754
7	0xbef282fd	-0.4736556
8	0x3f825d4c	1.0184722
9	0x3f58fd74	0.8476174
10	0xbdf2d37c	-0.11856744
11	0x3f3406e1	0.70322996
12	0xbe5ac7bb	-0.21365254
13	0x3f88db57	1.0691937
14	0xbe90397c	-0.28168857
15	0xbf1b69b9	-0.60708195
16	0x3de5eae6	0.11226444
17	0xbdb475fb	-0.088115655
18	0x3db93837	0.09043925
19	0x3eb3b96e	0.3510241
20	0x3e31f337	0.17377935
21	0xbe8404be	-0.25784868
22	0x3e77cadf	0.24198483
23	0x3d0b8ae2	0.034067996
24	0x3e544c6c	0.20732278
25	0xbe7ecd23	-0.24882941
26	0xbecee9ed	-0.40412846
27	0xbe21843e	-0.15773103
28	0xbea05355	-0.31313577
29	0x3eab82f8	0.3349836
30	0xbebc005b	-0.3671902
31	0x3f6ffc53	0.9374439
32	0xbe802a0c	-0.2503208
33	0xbf09c6ec	-0.53819156
34	0x3e9eaa58	0.30989337
35	0xbea2bafb	-0.3178328
36	0x3cd292f0	0.02570483
37	0xbe8eaaac	-0.27864587
38	0x3e00e7c8	0.12588418
39	0xbe0ff7be	-0.1405935
40	0x3e0018a0	0.12509394
41	0xbdae3158	-0.08505505
42	0x3ead5cb2	0.33859783
43	0xbe77c6de	-0.24196956
44	0xbe79526c	-0.24347848
45	0xbe795646	-0.24349317
46	0x3ebc011e	0.36719602
47	0x3e0b507c	0.13604921
48	0x3eb8a173	0.36060676
49	0xbeb99104	-0.3624345
50	0xbecdbfe6	-0.4018547
51	0xbeabae36	-0.3353135
52	0xbe8d518d	-0.2760128
53	0x3e0d6764	0.13808972
54	0x3d32beaa	0.043638863
55	0x3e994f48	0.299433
56	0xbe57e3c3	-0.21082978
57	0xbe8e7e58	-0.27830768
58	0x3e5dce64	0.21660763
59	0xbe55e5ec	-0.2088849
60	0x3e323a1e	0.17404982
61	0xbe1e18bf	-0.15439127
62	0x3e23219d	0.15930791
63	0xbec859c3	-0.39130983
64	0xbe52f78a	-0.20602241
65	0x3d4e5ee9	0.050383482
66	0x3cd478e9	0.02593656
67	0xbe55dd21	-0.20885135
68	0x3e407906	0.18796167
69	0x3e654d79	0.22392835
70	0xbe295e05	-0.16539772
71	0xbe8c2fb9	-0.2738016

fc2.bias f4 [12]
0	0x3f520a67	0.8204712
1	0xbc8d218d	-0.017227912
2	0x3eb83070	0.35974455
3	0xbed963cb	-0.42458948
4	0xbe6f6714	-0.23379165
5	0x3f19f7ab	0.60143536
6	0xbd5cb790	-0.053885996
7	0xbe97ba1a	-0.29634172
8	0xbc936ed2	-0.01799718
9	0xbea39157	-0.31946823
10	0xbed70c1c	-0.42001426
11	0xbe9623fb	-0.29324326

fc3.weight f4 [3, 12]
0	0x3f312c2d	0.6920803
1	0xbf78e9a1	-0.9723149
2	0x3f99d502	1.201813
3	0x3dd0c3ff	0.10193633
4	0x3db62fa4	0.088958055
5	0x3f30a76c	0.69005466
6	0xbe422500	-0.18959427
7	0xbdc4c95e	-0.0960872
8	0x3daaa5d3	0.0833241
9	0xbe55605f	-0.20837544
10	0xbe19cfa6	-0.15020618
11	0xbe262a57	-0.16227089
12	0xbef71d79	-0.48264673
13	0xbdce0bf8	-0.100608766
14	0xbefd9cb1	-0.4953361
15	0xbe410de5	-0.18852957
16	0xbe4ae694	-0.19814521
17	0xbf3671f2	-0.71267617
18	0xbdca5e58	-0.09881276
19	0xbe695066	-0.22784576
20	0x3e577e9a	0.21044388
21	0xbdd04c09	-0.101707526
22	0x3e36053c	0.17775434
23	0x3d3176f7	0.043326344
24	0xbf286054	-0.65771985
25	0x3f5ea177	0.86965126
26	0xbeebc26d	-0.46046773
27	0xbe0ab158	-0.13544214
28	0xbe755f22	-0.23962072
29	0xbf2f7558	-0.6853843
30	0x3da92688	0.082593024
31	0xbd81253e	-0.063059315
32	0x3dddeb2c	0.10835871
33	0xbe916052	-0.283938
34	0x3e91f5b6	0.28507775
35	0xbe2ef8b7	-0.17087065

fc3.bias f4 [3]
0	0x3e655564	0.22395855
1	0xbe04faaf	-0.12986253
2	0x3db319c6	0.0874515
